t_1_pigment_net.pth (torch, 736295 bytes, 10 tensors)

conv1.0.weight f4 [6, 1, 5]
0	0x3e08237d	0.13294788
1	0x3ed62132	0.418222
2	0x3d788daf	0.060681995
3	0x3ea723f9	0.32644632
4	0x3f08b278	0.5339732
5	0x3e8adbf1	0.27120927
6	0x3e3ef799	0.18649139
7	0x3e2977c3	0.16549592
8	0x3e7ba008	0.24572766
9	0x3e118c92	0.1421378
10	0x3da198cb	0.07890471
11	0x3db765bb	0.089549504
12	0x3e9d9a8e	0.30781978
13	0xbdb44270	-0.088017344
14	0xbe96e243	-0.294695
15	0x3e1c7149	0.1527759
16	0x3e8d94fc	0.2765273
17	0x3ec08494	0.3760115
18	0x3e1cdbae	0.15318176
19	0xbce6cef2	-0.028174851
20	0x3f264afc	0.6495817
21	0x3dec5f65	0.115416326
22	0xbdddb87d	-0.10826204
23	0x3d4d57be	0.050132506
24	0xbf0e813d	-0.5566595
25	0xbc09bf00	-0.008407354
26	0x3d1bc9a8	0.03803411
27	0xbedc5b42	-0.43038374
28	0xbd778120	-0.060425878
29	0xbedc916b	-0.43079695

conv1.0.bias f4 [6]
0	0xbee2a134	-0.44263613
1	0x3de7e755	0.1132342
2	0x3ec042e3	0.3755103
3	0xbec51c9f	-0.384984
4	0x3d403717	0.046927538
5	0xbe84c3b4	-0.2593056

conv2.0.weight f4 [15, 6, 5]
0	0x3d73323e	0.059374087
1	0x3c872a0a	0.016499538
2	0xbe16af85	-0.14715393
3	0xbcfcb44f	-0.030847697
4	0xbe3254cd	-0.17415161
5	0xbe1097c9	-0.14120401
6	0x3e066560	0.13124609
7	0xbd860cc5	-0.06545404
8	0x3d0d0944	0.034432665
9	0x3cac16a7	0.021006895
10	0x3e0b0833	0.13577347
11	0xbe3be9e9	-0.18350948
12	0x3dff63ae	0.12470184
13	0xbe08b828	-0.133515
14	0xbd9fee55	-0.0780913
15	0x3dedcc2f	0.116112106
16	0xbe32c2e9	-0.17457165
17	0x3db29e0a	0.0872155
18	0xbe026003	-0.12731938
19	0xbe047a36	-0.12937245
20	0xbdff9fc6	-0.12481646
21	0xbd91886b	-0.07106098
22	0x3d70dfcd	0.058807183
23	0x3dc4f1ad	0.096164085
24	0x3c0f4867	0.008745289
25	0x3e1448de	0.14480922
26	0xbdd2a45e	-0.10285257
27	0x3e15d31a	0.1463131
28	0xbc53b5b0	-0.012921736
29	0x3e089c22	0.1334081
30	0xbd94e213	-0.07269683
31	0xbde36b07	-0.11104398
32	0xbe1f73aa	-0.15571466
33	0x3d87d6de	0.066327795
34	0x3d1b5490	0.037922442
35	0xbd1b6e78	-0.037947148
36	0xbe151cc4	-0.14561754
37	0x3dbf7f14	0.0935041
38	0xbdbd982c	-0.0925754
39	0x3da994f4	0.08280364
40	0x3dcd1f8c	0.10015783
41	0x3e2dedb4	0.16985208
42	0x3d7db828	0.061943203
43	0xbe215991	-0.15756823
44	0xbde0e742	-0.10981609
45	0xbe238355	-0.15968068
46	0x3dbf95f4	0.09354773
47	0xbc83de78	-0.016097292
48	0xbd81f367	-0.063452534
49	0x3d8e9348	0.069616854
50	0x3d6bace4	0.05753793
51	0xbcbd6030	-0.023117155
52	0x3d87fb0a	0.06639679
53	0x3e2fdb80	0.17173576
54	0xbe1050bb	-0.14093296
55	0xbd92b0ae	-0.07162605
56	0x3d1b6444	0.037937418
57	0xbe0bc3c2	-0.13648894
58	0x3da10a20	0.07863259
59	0xbdcbd804	-0.09953311
60	0x3d152d50	0.036420166
61	0xbd3d69e0	-0.04624355
62	0x3d6af950	0.05736667
63	0xbd8ea22a	-0.06964524
64	0xbd947e89	-0.07250697
65	0xbdad5996	-0.08464353
66	0xbe004dae	-0.12529632
67	0xbd999049	-0.07498223
68	0xbe3848b1	-0.1799648
69	0xbe2b244f	-0.1671307
70	0x3e191b7c	0.1495189
71	0x3de51030	0.11184728
72	0x3e28ecda	0.16496602
73	0x3cb9b968	0.022671416
74	0xbe24dc2e	-0.16099617
75	0x3ce34c88	0.027746454
76	0x3e243b38	0.16038215
77	0xbe18ab16	-0.14909014
78	0x3d64a0e8	0.055817515
79	0xbd994213	-0.07483306
80	0xbd05c1d4	-0.032655552
81	0xba946c80	-0.001132384
82	0x3d04288c	0.03226523
83	0xbd07331c	-0.033007726
84	0xbde74f64	-0.112944394
85	0xbcc36b48	-0.023854867
86	0xbd7d2eee	-0.061812334
87	0x3d9241b0	0.07141435
88	0xbc27e710	-0.010247961
89	0xbdb19de5	-0.08672694
90	0x3dc57744	0.09641889
91	0x3e20a756	0.15688834
92	0x3e51fefa	0.20507422
93	0xbd97d78f	-0.074141614
94	0xbe6b7721	-0.22994663
95	0xbe7b801a	-0.24560586
96	0x3e37cf8e	0.1795027
97	0x3e31d4a2	0.17366269
98	0x3e393fae	0.18090698
99	0x3d56a378	0.05240199
100	0xbbe6065f	-0.0070198025
101	0xbd551d6f	-0.052030023
102	0x3e405499	0.18782271
103	0x3d02051f	0.031743165
104	0x3bdea934	0.006795073
105	0x3d959b02	0.07304956
106	0xbdd28b32	-0.10280456
107	0x3e18047c	0.1484546
108	0x3d90ae07	0.07064443
109	0xbe29e843	-0.16592507
110	0xbceee921	-0.029163899
111	0xbda934b4	-0.082620054
112	0xbe09c984	-0.13455778
113	0x3ede8af8	0.434654
114	0x3f15dbe8	0.58538675
115	0x3dba3450	0.09092009
116	0x3d9a975c	0.07548401
117	0xbbbbb440	-0.0057282746
118	0xbe352273	-0.17688923
119	0xbd861508	-0.0654698
120	0xbe04febc	-0.12987798
121	0x3e29551e	0.16536376
122	0x3e001d4c	0.12511176
123	0x3e917cec	0.2841562
124	0x3ed06d48	0.40708375
125	0xbc931144	-0.017952569
126	0x3dc7cdf3	0.097560786
127	0x3e90c5df	0.28275964
128	0x3ba093fb	0.004900453
129	0x3eb76015	0.35815492
130	0xbe5e73ba	-0.21723834
131	0xbe2f21e1	-0.17102768
132	0xbaf9b471	-0.0019050968
133	0x3c37d54d	0.011220288
134	0x3e053736	0.13009343
135	0x3d822afd	0.063558556
136	0xbd8f0e99	-0.06985206
137	0x3d8757bc	0.06608531
138	0x3e0978da	0.13425007
139	0x3ee0de41	0.43919566
140	0xbd21b74d	-0.03948145
141	0xbe052a5b	-0.13004439
142	0xbe7dca39	-0.24784173
143	0xbe0858eb	-0.1331517
144	0x3e89661a	0.2683571
145	0xbe083ab7	-0.13303648
146	0xbe2e0cbf	-0.1699705
147	0xbd2797ec	-0.04091637
148	0xbe34cedb	-0.17657034
149	0xbe129170	-0.14313293
150	0xbe0f5fd2	-0.14001396
151	0xbcb2fcf8	-0.02184914
152	0xbd5c5a1d	-0.053796876
153	0xbd84ea70	-0.06490028
154	0xbd1e4433	-0.03863926
155	0x3de362ff	0.111028664
156	0xbde0076f	-0.10938918
157	0x3e03332f	0.12812494
158	0xbdad0d9f	-0.08449864
159	0x3e075412	0.13215664
160	0x3d466012	0.048431464
161	0xbd9e0e15	-0.0771753
162	0xbd199330	-0.037493885
163	0xbe06ccf0	-0.13164115
164	0xbdceb1f9	-0.10092539
165	0x3cd0b54a	0.02547707
166	0x3e05bf45	0.13061245
167	0xbe094708	-0.13406003
168	0x3e297f14	0.16552383
169	0xbd892915	-0.06697289
170	0x3d860ab0	0.06545007
171	0xbde78456	-0.11304538
172	0xbe1e4092	-0.15454319
173	0xbe17873a	-0.14797679
174	0xbc57effc	-0.013179775
175	0x3d923f64	0.07140997
176	0xbdead6c5	-0.11466745
177	0x3ca12ad8	0.01967375
178	0x3dabd300	0.083898544
179	0xbd697c54	-0.057003334
180	0xbe4ff080	-0.20306587
181	0x3e00ae05	0.12566383
182	0x3ea0a976	0.31379288
183	0x3e91e75d	0.2849683
184	0x3f02cca8	0.5109353
185	0xbea1a06a	-0.315677
186	0xbe0a9645	-0.13533886
187	0x3d3f3ff5	0.046691854
188	0x3ed64c83	0.4185525
189	0x3ecdc716	0.40190953
190	0xbdc492d5	-0.095983185
191	0xbeb05f35	-0.34447637
192	0xbc9e3111	-0.019310506
193	0x3e964a40	0.29353523
194	0x3e31abae	0.17350647
195	0xbe8dbf01	-0.27684787
196	0xbe7692e7	-0.24079476
197	0x3e351c3e	0.17686555
198	0x3f1239f9	0.5711971
199	0x3f0a9f82	0.5414964
200	0xbde698c6	-0.11259608
201	0xbf02f74b	-0.5115859
202	0xbef518d0	-0.47870493
203	0xbeb29235	-0.34877172
204	0x3e85ca0f	0.2613072
205	0x3d76d354	0.060260132
206	0xbe10d37b	-0.14143173
207	0xbe3271b1	-0.17426182
208	0x3d33c510	0.043889105
209	0xbd83fdc2	-0.06444885
210	0x3ebd9486	0.37027377
211	0x3e8d8c69	0.27646187
212	0x3c696ba7	0.014246858
213	0xbebe24af	-0.37137362
214	0xbf08f53e	-0.5349921
215	0x3eb22690	0.34795046
216	0x3e195a3e	0.14975831
217	0x3e0a54d7	0.13508926
218	0xbe3a6374	-0.18202001
219	0xbe936607	-0.28788778
220	0x3c292d6a	0.010325769
221	0x3dab4c8b	0.08364209
222	0x3e194a66	0.14969787
223	0x3e420850	0.18948483
224	0x3bbb2c7b	0.0057120896
225	0x3ee5986a	0.44842845
226	0x3ee52e20	0.44761753
227	0x3d58c935	0.05292626
228	0xbe2e2e92	-0.17009953
229	0xbf116bc3	-0.56805056
230	0xbcbb479f	-0.0228613
231	0x3ea51ac6	0.3224699
232	0x3ec0eb57	0.3767955
233	0x3f300ce8	0.68769693
234	0x3d378eb8	0.04481384
235	0x3d884e64	0.06655577
236	0x3df6cc08	0.120506346
237	0x3e168492	0.14699009
238	0xbd3914a0	-0.045185685
239	0xbc7fea90	-0.015619889
240	0xbe13581e	-0.14389083
241	0xbe25d2ee	-0.16193745
242	0x3d8a18e5	0.067430295
243	0x3d9b1eb1	0.07574213
244	0x3e055226	0.13019618
245	0xbe38b354	-0.18037158
246	0x3df610ce	0.12014924
247	0x3d47a825	0.04874434
248	0xbe0e235c	-0.13880676
249	0xbe3e6494	-0.18593055
250	0xbe38e61c	-0.1805653
251	0xbe333d56	-0.17503867
252	0xbde69961	-0.112597235
253	0x39e551b1	0.00043739149
254	0xbd989eca	-0.074521616
255	0x3ded0e19	0.115749545

conv2.0.bias f4 [15]
0	0xbd4977d3	-0.04918654
1	0xbe164d48	-0.14677918
2	0x3db34a44	0.087543994
3	0xbec6cac9	-0.38826588
4	0xbedf5c00	-0.43624878
5	0xbd131937	-0.03591272
6	0xbe715b0b	-0.23569886
7	0x3dfccf63	0.123442434
8	0x3e13deec	0.14440507
9	0xbe89a204	-0.2688142
10	0xbed964f6	-0.4245984
11	0x3f0323c2	0.5122644
12	0x3e4a571e	0.19759795
13	0x3c179e10	0.009253994
14	0xbe037042	-0.12835792

fc1.0.weight f4 [304, 435]
0	0x3b98caab	0.004662832
1	0x3c15508c	0.009113442
2	0x3d356b95	0.04429205
3	0x3d04c4c9	0.03241423
4	0xbc25987c	-0.010107156
5	0xbcdc43cf	-0.026887802
6	0xba6dc140	-0.0009069629
7	0x3d2e3e39	0.04253981
8	0x3c22cd78	0.009936683
9	0x3cd9d262	0.026589576
10	0x3d06498b	0.03278498
11	0x3b522220	0.0032063797
12	0xbcc37ba2	-0.023862664
13	0x3d0bd6db	0.03414045
14	0x3cff144e	0.031137612
15	0xbca8fddb	-0.02062886
16	0xbc343468	-0.010998823
17	0xbc7f469c	-0.015580799
18	0x3cbe15f2	0.023203824
19	0xbd133dbd	-0.03594755
20	0xbd3a8d47	-0.04554489
21	0xbc59dbf8	-0.013297074
22	0xbcd81e63	-0.026381677
23	0x3d04e8e7	0.032448675
24	0x3d37ea63	0.044901263
25	0xbd3325be	-0.043737166
26	0xbcf32c1d	-0.02968412
27	0xbc433b64	-0.011916015
28	0x3a8c0320	0.0010682084
29	0xbd0d06a8	-0.034430176
30	0xbc29b44c	-0.0103579275
31	0xbc7575e4	-0.014981721
32	0x3d3be85f	0.045875903
33	0x3d428b7d	0.047496308
34	0x3c8c61fa	0.017136563
35	0xbd4179c0	-0.04723525
36	0xbd0d4e46	-0.034498475
37	0xbd3b5111	-0.045731608
38	0x3c24d008	0.010059364
39	0x3d279755	0.040915806
40	0xbbb8f488	-0.005644385
41	0x3cc1b60e	0.02364638
42	0x3ca1a7fa	0.019733418
43	0x3c10e938	0.008844666
44	0x3d29dfb7	0.041473117
45	0xbcdefd95	-0.027220527
46	0x3d1c6abd	0.03818773
47	0x3c720d64	0.0147737
48	0x3caaf732	0.020869825
49	0x3c055bbc	0.008139547
50	0xbd14b006	-0.03630068
51	0x3c17fea8	0.009277023
52	0x3ce44b7a	0.027868021
53	0x3d213d79	0.039365266
54	0xbd270865	-0.04077949
55	0xbc395718	-0.011312269
56	0xbd075841	-0.03304315
57	0x3cbf9d0e	0.02339032
58	0x3bce8ed0	0.0063036457
59	0xbcfd2f6e	-0.030906405
60	0x3d20070d	0.039069224
61	0x3d429c4f	0.04751235
62	0xbab41860	-0.0013740174
63	0xbc64ac64	-0.013957117
64	0xbb326c10	-0.0027225055
65	0xbb14ac90	-0.0022685863
66	0xbb8c2980	-0.004277408
67	0x3d0b1123	0.03395189
68	0xbcdd6895	-0.027027408
69	0xbd13d2ba	-0.036089636
70	0xbcda8bf9	-0.026678072
71	0xbd3423d1	-0.04397947
72	0xbcffcacf	-0.031224636
73	0xbd2a7cd6	-0.04162296
74	0x3bd52970	0.006505184
75	0x3c6ecc04	0.014575008
76	0x3cbee5ce	0.023302939
77	0xbd3266f9	-0.043555234
78	0x3d105297	0.035235014
79	0xbbf38428	-0.0074315257
80	0xbc907f3e	-0.017638799
81	0xbcc8952a	-0.02448519
82	0x3d0ce9b1	0.034402553
83	0xbbdfb848	-0.006827388
84	0x3c748274	0.014923681
85	0xbd172611	-0.036901537
86	0x3d086ef3	0.033308934
87	0xbd762283	-0.060091507
88	0xbd4ea8cf	-0.050453957
89	0xbcb741d0	-0.022370249
90	0xbcc5e365	-0.024156282
91	0xbd149a80	-0.036280155
92	0xba64c6da	-0.0008727141
93	0x3c33dece	0.010978414
94	0xbcff4c24	-0.031164236
95	0xbcb6e64a	-0.022326607
96	0xbe01c0c6	-0.12671193
97	0xbe17fe20	-0.14843035
98	0xbe10f163	-0.14154582
99	0xbe0abdf1	-0.1354902
100	0xbc65ac1e	-0.014018087
101	0x3cb5c12d	0.02218684
102	0x3d7cd525	0.061726708
103	0x3d866013	0.065612935
104	0xbca5e408	-0.020250335
105	0x3ca44995	0.020054618
106	0xbc910bb2	-0.017705772
107	0xbd43f97e	-0.047845356
108	0xbdc14fd7	-0.09439056
109	0xbd39cbdb	-0.045360427
110	0xbd851b2f	-0.064993255
111	0xbd7072d4	-0.05870326
112	0x3b30e52f	0.0026992073
113	0x3d919f8a	0.07110508
114	0x3c582ca0	0.013194233
115	0x3d89ec53	0.067345284
116	0xbd4252ab	-0.04744212
117	0xbd95c5c1	-0.07313109
118	0xbd2f72fc	-0.042834267
119	0xbd22946d	-0.03969233
120	0x3ca12b95	0.019674102
121	0x3c913b37	0.017728431
122	0xbd2899d0	-0.041162312
123	0xbd9fc77d	-0.07801721
124	0xbde2d88e	-0.11076461
125	0xbe4c124e	-0.19928858
126	0xbe71d95e	-0.23618075
127	0xbe076c77	-0.1322497
128	0xbc6b6cab	-0.01436917
129	0x3dccfa5f	0.10008692
130	0x3d95abf9	0.07308192
131	0x3db64dfa	0.089015916
132	0x3d2240a8	0.039612442
133	0x3d1a079b	0.03760491
134	0xbd841f68	-0.06451303
135	0xbd9b8abd	-0.075948216
136	0xbde617e8	-0.112350285
137	0xbddb5852	-0.10710205
138	0xbd6b5416	-0.057453237
139	0xbd83f6e0	-0.06443572
140	0x3c8ca672	0.017169211
141	0x3d39395e	0.045220725
142	0x3dde703d	0.108612515
143	0x3de51715	0.11186043
144	0x3dc8cb68	0.09804422
145	0xbd0cd78b	-0.034385245
146	0x3b4f3f8b	0.0031623568
147	0xbc4f2bb0	-0.012644693
148	0xbcd15a00	-0.02555561
149	0xbc860e02	-0.016364101
150	0xbc6b7ec0	-0.014373481
151	0x3d396933	0.04526634
152	0x3d397925	0.045281548
153	0xbd38670a	-0.04502014
154	0x3c9ea7c6	0.01936711
155	0xbc3c8804	-0.011507038
156	0xbd292cfe	-0.041302674
157	0x3d13f765	0.036124606
158	0xbb1cd580	-0.0023930967
159	0x3c993a62	0.018704597
160	0xbca4b4b3	-0.020105695
161	0xbc8c67da	-0.017139364
162	0x3d120a99	0.035654638
163	0xbb546ef0	-0.0032414757
164	0x3d103e7b	0.035215836
165	0x3caf531e	0.021401938
166	0x3c4bf694	0.0124489255
167	0x3cb48342	0.022035245
168	0x3ca5c26e	0.020234313
169	0xbd30fcf4	-0.043209985
170	0x3c83d8fe	0.01609468
171	0x3d0fd313	0.035113405
172	0xbc5aa778	-0.013345592
173	0xbcfa982a	-0.030590136
174	0xbd930a85	-0.07179741
175	0xbd2fad13	-0.042889666
176	0xbd46d6a8	-0.048544556
177	0xbc34f6f0	-0.011045203
178	0x3c9087a6	0.017642807
179	0x3daf8f4f	0.08572256
180	0xbad24761	-0.0016043001
181	0xbddf34c6	-0.108987376
182	0xbe239b84	-0.15977293
183	0xbdf40dcd	-0.11916695
184	0xbe2a04fb	-0.16603462
185	0xbe4e8cca	-0.20170894
186	0xbd2853da	-0.041095592
187	0x3d648d39	0.055798743
188	0x3ccd2b03	0.025044924
189	0x3cd09d37	0.02546559
190	0x3ca66561	0.020312013
191	0xbd85db45	-0.06535963
192	0xbd029b9f	-0.031886693
193	0xbdfdb649	-0.12388284
194	0xbd2863e3	-0.041110884
195	0xbdc11437	-0.09427684
196	0xbdbcf952	-0.092272416
197	0xbc88c9ef	-0.016697852
198	0xbd2dfad9	-0.042475555
199	0xbc34b536	-0.011029532
200	0x3dac51c9	0.08414037
201	0x3cacda5d	0.021100217
202	0x3d5e4d55	0.05427297
203	0x3c36e90b	0.01116396
204	0xbda92f1f	-0.08260941
205	0xbe005f43	-0.1253634
206	0xbd2c0b4c	-0.04200296
207	0xbdc0cc06	-0.094139144
208	0xbdcfe20f	-0.10150539
209	0xbd9c9127	-0.07644873
210	0xbca814db	-0.020517757
211	0x3b5a3183	0.0033293671
212	0xbda79a23	-0.08183696
213	0xbd670d5f	-0.056409236
214	0xbe4f81fd	-0.2026443
215	0xbe798be7	-0.24369775
216	0xbe645fff	-0.22302245
217	0x3d83b1df	0.064304106
218	0x3d68ef71	0.056868974
219	0x3d82510b	0.06363114
220	0x3c88b18d	0.016686225
221	0x3ca8e31b	0.020616105
222	0x3c9a2f2f	0.018821327
223	0xbdd1e051	-0.10247863
224	0xbd2692ac	-0.04066722
225	0xbd9151b7	-0.07095664
226	0xbd087765	-0.03331699
227	0xbc3f80e9	-0.011688449
228	0xbd0cd5bd	-0.034383524
229	0x3cdc3dab	0.026884874
230	0xbb422c46	-0.002962844
231	0x3d75d775	0.06001993
232	0xbd3f6c5b	-0.046734195
233	0x3cde3b16	0.027127784
234	0x3d1c75c3	0.038198244
235	0x3beb1788	0.007174436
236	0xbd11eda1	-0.03562701
237	0x3d3e400f	0.04644781
238	0xbcfa1135	-0.030525783
239	0xbbb99330	-0.005663298
240	0x3c158808	0.009126671
241	0x3c7b1c8c	0.01532663
242	0x3aeff5a0	0.0018307455
243	0xbd19e489	-0.037571464
244	0xb98c8680	-0.0002680309
245	0x3d43ac5b	0.047771793
246	0xbcc158de	-0.023601945
247	0x3d2c8295	0.04211672
248	0xbd2b97e5	-0.041892905
249	0xbd07638c	-0.03305392
250	0x3c91d1e2	0.017800275
251	0x3d33583f	0.04378533
252	0x3d1e8e7d	0.038710106
253	0xbcb6fec4	-0.022338279
254	0x3c516474	0.012780298
255	0x38b87c00	8.7969005e-05

fc1.0.bias f4 [304]
0	0xbe0d6fce	-0.13812181
1	0xbcf150f8	-0.029457554
2	0x3f2a3784	0.6649096
3	0x3d2e2a44	0.042520776
4	0xbc544362	-0.012955518
5	0x3c8122af	0.015763609
6	0x3ce89dd7	0.028395576
7	0xbcb55486	-0.02213503
8	0xbd04287d	-0.032265175
9	0xbd718efe	-0.05897426
10	0xbf12b554	-0.57307935
11	0xbd2e83ad	-0.042606045
12	0xbd80a5f0	-0.0628165
13	0x3cfac4a6	0.030611347
14	0x3d346682	0.04404307
15	0xbd3ee9f4	-0.046609834
16	0x3c94dc55	0.018171469
17	0xbbc15bdd	-0.0059008435
18	0xbcb62000	-0.022232056
19	0xbc924668	-0.017855838
20	0x3841d6f6	4.6214984e-05
21	0x3b90ecf8	0.00442278
22	0xbc642a32	-0.013926076
23	0xbe217986	-0.15769014
24	0xbc9ee60c	-0.019396804
25	0xbee16a23	-0.44026288
26	0x3ba4bf74	0.005027706
27	0xbd175202	-0.036943443
28	0xbd3a2fb8	-0.045455664
29	0x3eb2b6c4	0.34905064
30	0xbc686844	-0.014185015
31	0x3d060b62	0.0327257
32	0xbaa34a3b	-0.0012458035
33	0xbe0c58e9	-0.13705792
34	0x3d038fed	0.03211968
35	0x3eecd509	0.46256283
36	0xbd80abe3	-0.06282785
37	0xbd004c36	-0.03132268
38	0xbc37cfd4	-0.011218984
39	0x390df6ab	0.00013538699
40	0xbd629486	-0.055317424
41	0xbcff63bf	-0.031175492
42	0xbbd4cbc4	-0.0064940173
43	0x3ca28ab9	0.019841539
44	0x3f203308	0.6257787
45	0xbaecd280	-0.0018068105
46	0xbd09209c	-0.033478364
47	0x3d0f4f46	0.03498771
48	0x3ca0c9c2	0.019627456
49	0xbc1eb18e	-0.009685887
50	0xbdb986b0	-0.09058893
51	0xbbd5fb2d	-0.0065301866
52	0x3e2898c9	0.16464533
53	0x3c1a9ead	0.009437245
54	0xbab43e00	-0.0013751388
55	0x3d1eb3a9	0.038745556
56	0xbd53026f	-0.051515993
57	0xbd9bb2eb	-0.07602485
58	0xbc8604b1	-0.016359659
59	0xbd545c5d	-0.051845897
60	0xbb1a5da7	-0.0023554356
61	0xbf5113c0	-0.8167076
62	0xbcce5635	-0.025187591
63	0xbe4774f3	-0.19478206
64	0xbd36ad61	-0.04459894
65	0xbd7a7269	-0.061144266
66	0xbda994c0	-0.08280325
67	0xbd43b165	-0.0477766
68	0xbb803b33	-0.003913307
69	0xbd2e6ca1	-0.042584065
70	0xbd9d3175	-0.07675449
71	0xbc1baa7f	-0.009501099
72	0xbcdc8e6d	-0.026923383
73	0xbd17d1b8	-0.037065238
74	0xbcf12f79	-0.029441582
75	0xbd3009be	-0.04297804
76	0x3c891d91	0.016737731
77	0x3e2c0939	0.16800393
78	0xbd7107cb	-0.058845323
79	0x3cbff66c	0.023432933
80	0xbd452b4c	-0.048136994
81	0x3e2677de	0.16256663
82	0xbce4c531	-0.02792606
83	0xbda94aca	-0.08266218
84	0xbc33c6ce	-0.010972692
85	0xba64cbdd	-0.0008727888
86	0xbcc7840c	-0.024354957
87	0xbc146a8a	-0.009058604
88	0x3d6bc298	0.057558626
89	0x3f64961e	0.8929156
90	0xbd61e99a	-0.05515442
91	0xbb876e4c	-0.0041330215
92	0xbd867bca	-0.0656658
93	0x3d52aace	0.051432423
94	0xbd4d077d	-0.05005597
95	0x3c7a921c	0.015293624
96	0xbc1be84f	-0.009515836
97	0xbd567338	-0.052355975
98	0xbcd9b0e6	-0.02657361
99	0x3ce5170a	0.027965087
100	0x3d3a46d1	0.045477692
101	0x3ec77e4e	0.3896355
102	0xbc05b4a5	-0.008160745
103	0xbcdd5563	-0.027018255
104	0x3c4edc57	0.012625775
105	0x3cb60866	0.022220802
106	0xbc07a6e9	-0.008279541
107	0x3c51b90d	0.012800467
108	0xba922ab7	-0.0011151646
109	0xbd3910db	-0.04518209
110	0x3dccc8a2	0.09999205
111	0xbcde468a	-0.027133245
112	0xbc66fc17	-0.014098189
113	0x3f1c476f	0.610465
114	0xbacbdcef	-0.0015553514
115	0xbbbf9348	-0.0058464147
116	0xbc9935b9	-0.018702375
117	0xbd08c64f	-0.033392247
118	0xbd12899f	-0.035775777
119	0xbe9c4d1b	-0.30527577
120	0xbd23ccb7	-0.039990153
121	0x3c49d030	0.012317702
122	0xbd0d2f8f	-0.034469184
123	0xbd4922fe	-0.049105637
124	0xbe1ce0f9	-0.15320195
125	0xbe4c1c46	-0.1993266
126	0xbdd8b4ad	-0.10581336
127	0xbf4504dc	-0.7696054
128	0x3cf2e48b	0.029649993
129	0x3e346ae6	0.17618904
130	0x3cc0dcf2	0.023542855
131	0x3cc73c63	0.024320787
132	0xbc9d5b64	-0.019208618
133	0x3c91afea	0.017784078
134	0xbd3b3ed6	-0.045714222
135	0x3e1f2465	0.15541227
136	0xbd31b6e2	-0.0433873
137	0xbbb77d25	-0.005599635
138	0xbcfdbdc1	-0.03097427
139	0xbc46ed48	-0.012141533
140	0x3cd1401c	0.025543265
141	0xbd04c33f	-0.032412764
142	0x3c3190b8	0.010837726
143	0xbc40ba76	-0.011763206
144	0xbd3b7208	-0.045763046
145	0xbbba6466	-0.005688238
146	0xbd82b003	-0.06381228
147	0xbbf0297b	-0.0073291636
148	0x3cda98f9	0.026684271
149	0xbdb24909	-0.087053366
150	0x3c7017c3	0.014654103
151	0xbd194023	-0.03741468
152	0x3d3694c5	0.04457547
153	0x3c90e368	0.01768656
154	0x3f3eb176	0.74489534
155	0xbc808289	-0.015687244
156	0xbe47a673	-0.19497089
157	0xbd7b0163	-0.06128062
158	0x3d0122ad	0.03152721
159	0x3ae98db7	0.0017818724
160	0xbd93b83d	-0.07212875
161	0x3b36e4c5	0.0027907353
162	0x3b239482	0.0024960344
163	0xbcecb713	-0.02889589
164	0xbc34f9f6	-0.011045923
165	0xbd07a512	-0.033116408
166	0xbc7eb524	-0.015546117
167	0xbc815d0f	-0.015791444
168	0x3c817036	0.015800577
169	0xbc7fd167	-0.01561389
170	0x3eb3b65e	0.35100073
171	0x3ccd4e16	0.025061648
172	0xbd5ded48	-0.054181367
173	0x3d0e3fc3	0.034728777
174	0xbcdd4f99	-0.027015494
175	0x3c49d4fe	0.012318848
176	0x3c38dcb1	0.011283086
177	0xbb5b301e	-0.0033445428
178	0xbd493ce0	-0.04913032
179	0x3aa77048	0.0012774551
180	0xbd13abb0	-0.036052406
181	0x3cc1871e	0.023624
182	0xbd4ac3e2	-0.049503215
183	0xbba985d0	-0.0051734224
184	0x3e7b1682	0.24520305
185	0xbd265a3a	-0.04061339
186	0xbef8729a	-0.48524934
187	0xbcb79d62	-0.022413913
188	0xbd6804cc	-0.0566452
189	0x3d097344	0.03355719
190	0xbd67d64d	-0.056600858
191	0x3c290a2c	0.010317367
192	0xbd41e35a	-0.04733596
193	0xbc1d731f	-0.009609967
194	0xbf5d62d1	-0.86478907
195	0x3c70cf94	0.014697928
196	0xbbfc10f4	-0.0076924507
197	0x3c42f737	0.011899761
198	0xbcad11ed	-0.021126712
199	0x3cbff844	0.023433812
200	0xbddbb150	-0.10727179
201	0xbe3f53f3	-0.18684368
202	0xbd12085f	-0.035652515
203	0x3bfc182b	0.0076933107
204	0x3c0f8326	0.008759296
205	0x3b4d1989	0.0031295738
206	0xbd7e9132	-0.062150188
207	0x3e144cf8	0.14482486
208	0xbbd23a3e	-0.0064156344
209	0xbcb60d10	-0.022223026
210	0x3d2b1bff	0.041774746
211	0xbda55772	-0.080733195
212	0xbd3e9062	-0.046524413
213	0xbcefd4b4	-0.02927623
214	0x3d1feb97	0.039043035
215	0x3e2a2c1d	0.1661839
216	0x3c0bbe40	0.008529246
217	0x3cc0292b	0.02345713
218	0x3ec037bf	0.3754253
219	0x394282db	0.00018550029
220	0xbd372ff8	-0.04472348
221	0x3b06e7d4	0.0020584958
222	0xbcedb907	-0.029018892
223	0x3cc86977	0.024464352
224	0xbd7cf937	-0.061761107
225	0xba3b2c69	-0.00071401015
226	0xbdb2531f	-0.0870726
227	0xbd3348e6	-0.043770693
228	0x3c53eabd	0.012934384
229	0xbccddbb5	-0.025129179
230	0x3d161cb1	0.036648456
231	0xbd745e71	-0.05966038
232	0x3cec065d	0.028811628
233	0xbd1124e6	-0.03543558
234	0x3ba07748	0.004897032
235	0xbe10807c	-0.14111513
236	0xbd28e8bf	-0.04123759
237	0x3cfc24fe	0.030779358
238	0xbb23ce63	-0.0024994842
239	0xbc1a092c	-0.009401601
240	0xbd2df56f	-0.04247039
241	0x3cbf5749	0.02335705
242	0x3e44c94e	0.19217417
243	0x3bdd9fb7	0.0067634243
244	0x3e0d085f	0.13772725
245	0xbf586121	-0.84523207
246	0xbd03e37b	-0.032199364
247	0xbd354c80	-0.04426241
248	0xbc841ba3	-0.01612646
249	0x3c277c40	0.010222495
250	0xbb91ab10	-0.004445441
251	0x3ca80ba1	0.020513358
252	0xbe12a63d	-0.14321227
253	0xbcb491e1	-0.022042217
254	0xbd816f60	-0.06320071
255	0xbd0f8f8e	-0.035049014

fc2.0.weight f4 [152, 304]
0	0xbb91b5f2	-0.0044467384
1	0xbac264f9	-0.0014831118
2	0xbded0a59	-0.11574239
3	0xbd3aa3db	-0.04556642
4	0xbd03cc94	-0.032177523
5	0x3c0e7bcb	0.008696507
6	0xbd39306a	-0.045212187
7	0xbd40dc85	-0.047085304
8	0x3c0a9814	0.00845911
9	0xbdb0de31	-0.0863613
10	0x3c88e74b	0.016711852
11	0xbcf3bdbe	-0.029753562
12	0xbc47474c	-0.012162995
13	0xbcf3403d	-0.029693717
14	0x3bd60675	0.0065315315
15	0xbd97d419	-0.07413501
16	0xbcefe1dc	-0.029282503
17	0x3c86427e	0.016389128
18	0x3d28e4fb	0.041233998
19	0x3d3fa3d5	0.0467871
20	0x3d0c5870	0.034264028
21	0x3cec1403	0.028818136
22	0x3bd29765	0.006426739
23	0xbadfd5aa	-0.0017077227
24	0x3d963752	0.0733477
25	0xbe170986	-0.14749727
26	0xbc8ec93e	-0.017429944
27	0xbd691583	-0.05690528
28	0xbd3c751d	-0.046010125
29	0xbe1e1e46	-0.15441236
30	0xbced5a8f	-0.028973846
31	0x3c0e4fef	0.00868605
32	0xba5a164f	-0.0008319364
33	0x3ca9bdaa	0.020720322
34	0x3d500a94	0.050791338
35	0x3d88ebaa	0.06685574
36	0xbce98e92	-0.028510366
37	0xbb24a1c5	-0.0025120836
38	0xbea21c59	-0.31662253
39	0xbd9a1dc5	-0.07525209
40	0x3d41eb9b	0.04734383
41	0xbc902c25	-0.017599175
42	0xbd358f2c	-0.044325992
43	0x3cab73dc	0.02092927
44	0x3db207a9	0.08692867
45	0xbd2280d2	-0.039673634
46	0xbc18c1ef	-0.009323581
47	0x3d86bc08	0.06578833
48	0xbb41e910	-0.002958838
49	0xbc21ec17	-0.009882948
50	0xbd0f227c	-0.034944996
51	0x3d4eaa51	0.050455395
52	0xbda2420d	-0.079227544
53	0xbd20e6e5	-0.0392827
54	0x3c7ddbb4	0.015494276
55	0xbc50bee9	-0.012740829
56	0x3d158d5d	0.036511768
57	0xbdfa8846	-0.12233023
58	0xbd118880	-0.035530567
59	0x38d3cd30	0.00010099483
60	0x3d5663cc	0.052341267
61	0xbd7b2b93	-0.061320852
62	0x3d94eef2	0.07272138
63	0xbe113538	-0.14180458
64	0xbd6f9e1e	-0.0585004
65	0xbd2aac08	-0.041667968
66	0xbe6a5e91	-0.22887637
67	0x3d4bd03d	0.04975914
68	0xbc5404d6	-0.012940606
69	0xbcecbb09	-0.028897779
70	0xbda0e219	-0.07855625
71	0x3d040729	0.03223339
72	0xbd603c82	-0.054745205
73	0x3c380e2f	0.01123385
74	0x3c892062	0.016739074
75	0x3cdef0eb	0.027214488
76	0xbc226a0f	-0.009912982
77	0x3da0c305	0.07849697
78	0xbd327729	-0.04357067
79	0x3d3bb573	0.04582734
80	0x3c8c1308	0.017098919
81	0x3e147433	0.14497451
82	0x3d0fe26d	0.035128046
83	0xbd8062f0	-0.06268871
84	0xbcfcb14c	-0.03084626
85	0xbd85d758	-0.06535214
86	0xbcc2078b	-0.023685237
87	0xbb8300d8	-0.0039979033
88	0x3be4e1d3	0.006984928
89	0xbee4f829	-0.4472058
90	0x3cac7a75	0.021054486
91	0xbcbb7eee	-0.022887673
92	0xbd576e44	-0.052595392
93	0xbbf0a6ba	-0.007344094
94	0xbd8189e6	-0.0632513
95	0xbb4fc9d0	-0.0031705983
96	0xbd88b46e	-0.06675039
97	0xbd5f0456	-0.054447494
98	0x3cd14530	0.025545686
99	0x3d1f3ec9	0.038878236
100	0xbcd640f9	-0.026154028
101	0x3d17ac5f	0.03702962
102	0xbe30b7b7	-0.17257582
103	0x3d7bae64	0.06144561
104	0xbd0518b4	-0.03249426
105	0xbd936dba	-0.07198663
106	0xbc78da34	-0.015188742
107	0xbda5d2ab	-0.08096822
108	0x3a268ec0	0.0006353669
109	0x3d13b4a0	0.03606093
110	0xbcd0c58f	-0.025484828
111	0xbcb983b9	-0.022645818
112	0xba14a560	-0.0005670395
113	0x3e3f6022	0.18689016
114	0xbd74472c	-0.059638187
115	0xbd503d22	-0.05083955
116	0x3d86acaa	0.06575902
117	0x3d20aae4	0.039225474
118	0xbd143069	-0.03617898
119	0xbd1f3c02	-0.038875587
120	0x3d1fa56d	0.03897612
121	0x3cf2f822	0.029659335
122	0x3ba5332c	0.0050415006
123	0x3cf68b5c	0.030095749
124	0xbda0e217	-0.07855623
125	0x3d915cae	0.07097755
126	0xbd39df9f	-0.045379277
127	0x3df230b5	0.118256964
128	0x3d3d7456	0.046253525
129	0xbe0fe950	-0.14053845
130	0x3cd44a29	0.025914269
131	0x3cc2ef86	0.023795854
132	0xbd697e2d	-0.057005096
133	0xbd7a144a	-0.061054505
134	0xbd6d7820	-0.05797589
135	0x3e21f7c4	0.15817171
136	0x3cb5630e	0.02214196
137	0xbc815d31	-0.015791507
138	0x3d593179	0.053025696
139	0x3d5cae27	0.053877022
140	0x3df2883c	0.11842391
141	0x3d105bcf	0.035243805
142	0x3c985233	0.018593883
143	0xbd119218	-0.035539716
144	0x3d0dc20d	0.03460889
145	0x3baf5b09	0.0053514284
146	0xbc7b6c54	-0.015345652
147	0xbd1c00a4	-0.03808655
148	0x3d2b9705	0.04189207
149	0x3d0914b7	0.03346702
150	0xbd34f502	-0.04417897
151	0x3d107a7c	0.03527306
152	0xbd12d7da	-0.035850383
153	0x3d431416	0.047626577
154	0xbdd892ed	-0.10574899
155	0x3d38a63c	0.04508041
156	0xbc980bee	-0.018560376
157	0xbd185d8b	-0.037198585
158	0x3d728f60	0.059218764
159	0x3d3fc1b2	0.04681558
160	0xbb4a1a2f	-0.003083836
161	0x3c9e0eb8	0.019294128
162	0xbd0fba53	-0.035089802
163	0xbd67835d	-0.056521762
164	0xbce48d2e	-0.027899351
165	0x3d5bb22b	0.05363671
166	0x3d8e87e7	0.06959515
167	0x3cdb6395	0.026780883
168	0xbca7def2	-0.02049205
169	0xbc773417	-0.015088103
170	0xbea49857	-0.32147476
171	0x3c8691f6	0.016427021
172	0x3a806c12	0.0009797832
173	0x3cb6c5b2	0.022311065
174	0x3d49d040	0.04927087
175	0x3d205373	0.039142083
176	0x3d9c7555	0.07639567
177	0x3d4c5d65	0.049893755
178	0xbd8d5659	-0.06901235
179	0x3ce4c464	0.027925678
180	0x3c3a0986	0.01135481
181	0x3ab0d6a0	0.0013491698
182	0x3d0b783c	0.03405021
183	0x3beffd58	0.007323902
184	0x3e39c9df	0.18143414
185	0x3cb42c09	0.021993654
186	0x3d0a4909	0.033761058
187	0x3ca9761a	0.020686198
188	0x3d918032	0.071045294
189	0x3cf87b48	0.030332223
190	0xbc13d0bf	-0.009021937
191	0x3caa5306	0.020791542
192	0x3d409d2c	0.04702489
193	0xbc33224e	-0.010933472
194	0x3ebb1882	0.36542135
195	0x3d4510cd	0.048111726
196	0x3d2dbb1b	0.042414766
197	0xbc9dd742	-0.019267682
198	0xbcb8cdba	-0.022559036
199	0xbc6dc8d6	-0.014513215
200	0x3cbd8854	0.023136295
201	0x3d17b4f7	0.037037816
202	0xbc1c5d6e	-0.00954376
203	0x3cabeafe	0.020986076
204	0x3d4c9ec0	0.049956083
205	0x3d9dd6d2	0.07706989
206	0x3cc8de5a	0.024520088
207	0x3d2246d1	0.039618317
208	0x3d36c347	0.044619825
209	0x3d0e463e	0.034734957
210	0x3c8a6432	0.01689348
211	0xbc8da3ed	-0.01729008
212	0xbc8e1598	-0.017344281
213	0xbc83f6db	-0.01610892
214	0x3d4e31b1	0.05034036
215	0x3e241602	0.1602402
216	0xbd4eff40	-0.050536394
217	0x3c9cf390	0.019159108
218	0x3df9d56c	0.1219891
219	0x3d010f9b	0.031509023
220	0x3d163505	0.036671657
221	0x3d193419	0.0374032
222	0x3d35091c	0.04419814
223	0x3d093042	0.033493288
224	0x3d2a1a16	0.041528784
225	0xbc500a90	-0.012697831
226	0x3ca6c55a	0.020357776
227	0x3c7fd62e	0.015615029
228	0xbbbc7fef	-0.0057525556
229	0xbccb3bab	-0.024808725
230	0x3d9a5d26	0.07537298
231	0x3d7f02f4	0.062258676
232	0x3b13c2d8	0.0022546556
233	0x3d4e03cf	0.0502966
234	0x3ce237e1	0.027614536
235	0x3dab0da6	0.083522126
236	0xbced19c4	-0.02894295
237	0x3d49d466	0.049274825
238	0x3d2efd5d	0.042722095
239	0x3be216be	0.0068996837
240	0x3da76572	0.08173646
241	0x3d07c1ce	0.03314381
242	0xbd4f3ba4	-0.050593987
243	0x380b2c00	3.318116e-05
244	0x3dddb610	0.10825741
245	0xbd09edc5	-0.03367402
246	0xbd1a9189	-0.03773645
247	0xbd0392fa	-0.03212259
248	0xbd6a623b	-0.057222586
249	0xbd30b818	-0.043144315
250	0xbd00f2de	-0.031481616
251	0xbc9e6a21	-0.019337716
252	0xbd972590	-0.07380211
253	0x3d1ccf14	0.038283423
254	0xbac34720	-0.0014898516
255	0x3d819b52	0.06328453

fc2.0.bias f4 [152]
0	0xbf38b2b7	-0.721477
1	0x3f52eceb	0.8239276
2	0xbdb205f3	-0.08692541
3	0xbdfa6b43	-0.1222749
4	0xbd9fccc8	-0.07802731
5	0xbd60bfdc	-0.05487047
6	0xbf502822	-0.8131124
7	0xbd8c164a	-0.06840189
8	0x3e558b95	0.20854028
9	0xbe170aaf	-0.14750169
10	0xbe00d5f3	-0.12581615
11	0x3dae6ac3	0.08516457
12	0xbf49abf0	-0.7877798
13	0x3c8384e5	0.01605458
14	0xbe4e033d	-0.20118423
15	0xbd7b8378	-0.061404675
16	0xbcc80f2b	-0.024421295
17	0xbd1244c2	-0.035710104
18	0x3eade04f	0.33960196
19	0x3d35a796	0.044349276
20	0xbd531ca9	-0.051541004
21	0x3d8040c8	0.06262356
22	0x3c750d81	0.014956833
23	0xbe84cc87	-0.25937292
24	0x3ed2ab89	0.41146496
25	0x3e25e974	0.16202337
26	0xbce55b02	-0.027997497
27	0xbcd3b5cd	-0.025843525
28	0x3e94293f	0.28937718
29	0xbd2607d5	-0.040534813
30	0x3cc1615c	0.023605995
31	0xbd271cac	-0.040798828
32	0xbd10a325	-0.035311837
33	0xbdb290e8	-0.08719045
34	0xbd78a8f1	-0.06070799
35	0xbd07ed8c	-0.033185527
36	0xbe869d5a	-0.26291925
37	0xbdc233d6	-0.09482543
38	0x3e475bd3	0.19468622
39	0xbd96250e	-0.07331286
40	0xbd6aaec8	-0.05729559
41	0xbcf20006	-0.029541027
42	0x3d3a416a	0.04547254
43	0xbd0b2676	-0.033972226
44	0xbdd399a2	-0.103320375
45	0x3bf5822c	0.0074923243
46	0xbdeeee7b	-0.1166658
47	0xbc0065a0	-0.007836729
48	0x3dbe39bf	0.09288358
49	0x3cf1f059	0.029533552
50	0x3e9323ba	0.28738195
51	0xbd31d62a	-0.043417133
52	0xbd5e60e5	-0.054291625
53	0xbb805b62	-0.0039171437
54	0xbab4e284	-0.0013800417
55	0xbd467bd8	-0.04845795
56	0x3d232b10	0.03983599
57	0xbc3fc416	-0.011704465
58	0xbcd4c417	-0.02597241
59	0x3fa53fb6	1.2910068
60	0xbbb92124	-0.0056497026
61	0x3d79145c	0.06081043
62	0xbe1c3811	-0.15255763
63	0x3efc4546	0.492716
64	0xbbdd6f32	-0.0067576403
65	0xbbc4d0f1	-0.006006353
66	0xbccd9257	-0.025094194
67	0x3e5b92ec	0.21442765
68	0x3d2ec05c	0.042663917
69	0xbcd22feb	-0.025657615
70	0xbc912605	-0.017718324
71	0xbe4d2db9	-0.20036973
72	0xbf0886b0	-0.53330517
73	0xbce3dfc0	-0.027816653
74	0xbc98c29f	-0.01864749
75	0xbdc8a269	-0.09796602
76	0xbe463705	-0.19356926
77	0xbc5283cb	-0.012848805
78	0x3dea7647	0.11448341
79	0x3f068c3a	0.5255772
80	0xbd65645e	-0.05600392
81	0x3e0f8dbc	0.14018911
82	0xbb8f512b	-0.0043736896
83	0xbdb1f599	-0.08689422
84	0xbd10e440	-0.035373926
85	0xbd97220b	-0.0737954
86	0xbe588475	-0.21144278
87	0x3da7eb53	0.081991814
88	0xbd5fe445	-0.054661054
89	0xbf645f1e	-0.8920764
90	0xbdbd7bc3	-0.09252121
91	0x3d0510b6	0.03248664
92	0x3bfa289d	0.007634236
93	0x3d4b2069	0.049591456
94	0x3d1c3f7d	0.038146485
95	0x3cb4f429	0.02208908
96	0x3e9f018e	0.31055874
97	0x3ed2a0d5	0.4113833
98	0xbe363549	-0.17793764
99	0x3c0e4b2a	0.008684913
100	0x3c06f13f	0.0082362285
101	0xbf2b504c	-0.669194
102	0xbd132ca4	-0.035931244
103	0xbdb69268	-0.089146435
104	0xbd6beb63	-0.05759753
105	0xbeb281f8	-0.34864783
106	0xbcd7ca82	-0.02634168
107	0xbd8ce015	-0.06878678
108	0x3e98c1ed	0.29835454
109	0xbee2239c	-0.44167793
110	0xbd27bde3	-0.040952574
111	0xbda4b403	-0.08042147
112	0xbe28b9e5	-0.16477163
113	0x3e360d6d	0.17778559
114	0xbd7e4ebb	-0.062086802
115	0x3f1afbf1	0.6054068
116	0x3eaf9036	0.34289712
117	0xbba7a585	-0.005116167
118	0x3bf4c82f	0.007470153
119	0xbd7bff3a	-0.0615227
120	0xbea26c36	-0.31723183
121	0xbc7d3c90	-0.015456334
122	0xbe3fc5db	-0.1872782
123	0xbd850370	-0.06494796
124	0xbea8527d	-0.32875434
125	0xbe316c60	-0.17326498
126	0x3e8add48	0.2712195
127	0xbf3f3bcb	-0.7470061
128	0x3cae686e	0.02129003
129	0x3eec45ba	0.46146947
130	0xbce1dcf7	-0.027571185
131	0xbd445665	-0.047933955
132	0x3c04a9e0	0.008097142
133	0xbd01bc58	-0.03167376
134	0xbca0fc27	-0.019651486
135	0xbecc6bad	-0.399259
136	0xbdc43a41	-0.095814236
137	0x3b998ee1	0.004686222
138	0x3d84a145	0.06476072
139	0xbd4c5488	-0.049885303
140	0x3c254c3b	0.010088976
141	0x3c960d34	0.018316843
142	0x3c732f57	0.01484283
143	0xbeff10e5	-0.49817577
144	0xbe6b5f0d	-0.22985478
145	0xbe23f493	-0.16011266
146	0x3e50c669	0.20388187
147	0x3e214b38	0.1575135
148	0xbdd5575d	-0.10417054
149	0xbda2e1f9	-0.07953257
150	0xbd30ff69	-0.043212328
151	0x3ea3e85b	0.3201321

fc3.weight f4 [25, 152]
0	0xbc80a713	-0.015704667
1	0x3e38503f	0.17999361
2	0xbd8a1005	-0.06741337
3	0xbd2f5a0a	-0.042810477
4	0xbd4cbb7d	-0.04998349
5	0xbdb123be	-0.086493954
6	0xbe9249db	-0.28571972
7	0xbd8660c3	-0.065614246
8	0x3cc5619c	0.024094395
9	0xbd91ba8e	-0.071156606
10	0xbc4c0180	-0.0124515295
11	0xbe506731	-0.20351864
12	0xbcb1ed41	-0.021719577
13	0xbe18777b	-0.14889328
14	0xbe620e2a	-0.22075716
15	0xbcebb401	-0.028772356
16	0x3d6fdc06	0.05855944
17	0x3d9832aa	0.074315384
18	0x3e0edbf7	0.13951097
19	0xbd59703c	-0.05308555
20	0x3d107739	0.03526995
21	0xbd8a852a	-0.0676368
22	0xbc8cd9d0	-0.017193705
23	0x3c203986	0.00977934
24	0x3e3e79a5	0.18601091
25	0xbd2e6867	-0.042580035
26	0xbdd05a87	-0.10173517
27	0xbc12928c	-0.008946072
28	0x3e802559	0.25028494
29	0x3bdec2a2	0.0067981044
30	0xbdfdeae5	-0.12398318
31	0xbdaf26d0	-0.08552325
32	0xbd639945	-0.05556609
33	0x3d84a0ad	0.06475959
34	0xbcf3594a	-0.029705662
35	0x3d1a3602	0.037649162
36	0xbeb41c7f	-0.3517799
37	0x3ccce3c1	0.025010945
38	0xbf630e0e	-0.8869332
39	0x3cb80e4a	0.022467751
40	0x3da5b451	0.08091033
41	0xbcd49b43	-0.02595294
42	0x3e18ec0b	0.14933793
43	0x3c71a900	0.014749765
44	0xbdb769cf	-0.08955728
45	0x3c784957	0.015154204
46	0xbd255039	-0.04035971
47	0xbd67213e	-0.056428187
48	0xbf20eabe	-0.6285819
49	0xbdcf7c6a	-0.10131152
50	0xbf404ebb	-0.75120133
51	0xbca2ef8c	-0.019889615
52	0xbd41f09a	-0.047348596
53	0xbd621d1a	-0.055203535
54	0xbf46b15b	-0.7761437
55	0x3d850ae5	0.064962186
56	0x3e85438b	0.26028094
57	0xbd0b79c4	-0.03405167
58	0x3d645d26	0.055752896
59	0x3b0e1dbf	0.002168521
60	0xbe3f698d	-0.18692608
61	0xbecc3088	-0.39880776
62	0xbd87497a	-0.066058114
63	0x3b079ffc	0.0020694723
64	0x3c6436db	0.013929094
65	0x3d4bc1d4	0.049745396
66	0x3b2fad65	0.0026806232
67	0x3df3b4f8	0.118997514
68	0xbd8dc773	-0.069228075
69	0xbd8a865e	-0.0676391
70	0xbc875419	-0.016519593
71	0xbf3895eb	-0.72103757
72	0xbdc70a6f	-0.09718787
73	0x3d206fa1	0.039168958
74	0xbdaea2d9	-0.085271545
75	0xbda66050	-0.08123839
76	0xbd9eae5f	-0.077481024
77	0x3ccb699c	0.024830632
78	0xbe1c6e23	-0.15276389
79	0xbeb1dc88	-0.34738564
80	0x3dc990ac	0.09842047
81	0xbb3fdb87	-0.0029275136
82	0x3d6eb7db	0.058280807
83	0xbe0ce4db	-0.13759176
84	0xbd352140	-0.044221163
85	0x3cd99c73	0.026563859
86	0xbe7c97e1	-0.24667312
87	0xbf8de5a4	-1.1085706
88	0xbcf5f81b	-0.030025532
89	0x3dba1bcb	0.09087332
90	0xbe58ca71	-0.21170975
91	0xbf43170d	-0.7620705
92	0x3d219f5a	0.03945861
93	0x3cd0e126	0.025497984
94	0xbcec2b9a	-0.028829385
95	0xbc3c89f0	-0.011507496
96	0x3d7fe2a4	0.062472
97	0xbc1ef839	-0.009702736
98	0xbd81d0af	-0.06338631
99	0x3cba9968	0.022778228
100	0xbd1b790a	-0.03795723
101	0xbdb77e38	-0.08959621
102	0xbc355786	-0.0110682305
103	0xbedd6fc1	-0.43249324
104	0xbdad0da1	-0.08449865
105	0xbde63f10	-0.11242497
106	0x3d735f35	0.05941697
107	0xbd3b1c95	-0.045681555
108	0xbf1b1bc5	-0.6058925
109	0xbe9be38a	-0.30447036
110	0xbcdfa323	-0.02729947
111	0x3cfcb131	0.03084621
112	0xbc48e83c	-0.0122624
113	0xbda6e0b1	-0.08148325
114	0xb999645d	-0.0002925721
115	0xbf5374db	-0.8260018
116	0xbe95cb0d	-0.29256478
117	0x3c2e5d50	0.010642365
118	0xbd1cf80e	-0.0383225
119	0xbd72731e	-0.059191816
120	0x3ebc8cba	0.36826116
121	0x3d55c6af	0.052191433
122	0x3def78b7	0.116929464
123	0x3cfae5cb	0.030627152
124	0xbe846c53	-0.25863895
125	0xbed88d08	-0.42295098
126	0xbba27ee9	-0.0049589765
127	0x3e6ccac5	0.23124225
128	0xbee0b4a1	-0.4388781
129	0xbe9b28e4	-0.30304635
130	0xbd92726d	-0.07150731
131	0x3ccb6852	0.024830017
132	0xbdab5c8d	-0.08367262
133	0xbd25c9ff	-0.04047584
134	0xbd64e715	-0.05588444
135	0xbe7721aa	-0.24133936
136	0xbe1579a2	-0.1459718
137	0xbd7b167f	-0.06130075
138	0x3e1f4d29	0.15556778
139	0xbf18cdfb	-0.596893
140	0x3d262b8d	0.040568877
141	0xbcf92561	-0.030413331
142	0xbde9a502	-0.11408426
143	0x3db23ff8	0.08703607
144	0xbe9fd9ea	-0.31220943
145	0xbf974c8a	-1.1820233
146	0x3c8398bf	0.016064046
147	0x3e9c44ca	0.30521232
148	0xbdc16403	-0.09442904
149	0xbd2b42d5	-0.041811783
150	0xbd6dce93	-0.058058333
151	0xbcf61fa2	-0.03004438
152	0xbe6a8895	-0.22903664
153	0xbdf3fd90	-0.119135976
154	0x3a8ef102	0.0010905566
155	0xbccf7f80	-0.025329351
156	0xbd461165	-0.048356432
157	0x3cf477cd	0.029842282
158	0x3e21df49	0.15807833
159	0xbc8678fd	-0.016415114
160	0xbca26032	-0.01982126
161	0xbd7402b2	-0.059572883
162	0xbd1dd304	-0.03853132
163	0x3bdbd06c	0.0067081954
164	0xbe4091ae	-0.18805572
165	0x3d133024	0.035934582
166	0x3df8a7b8	0.12141365
167	0x3d1c9b88	0.038234264
168	0xbd2b8127	-0.041871216
169	0x3c6eb2a2	0.014568957
170	0xbe114f0e	-0.14190313
171	0x3b9408e6	0.0045176623
172	0x3cf2890c	0.029606365
173	0xbf566bd1	-0.83758265
174	0xbd06b3a0	-0.032886147
175	0xbea72117	-0.32642433
176	0xbdf039ee	-0.11729799
177	0xbd79826e	-0.060915403
178	0xbd0da6b0	-0.034582794
179	0xbd15a67a	-0.036535718
180	0xbf2fb704	-0.68638635
181	0xbd768b86	-0.060191654
182	0xbb83f1c4	-0.0040266234
183	0xbd09eaa9	-0.033671055
184	0xbc56e047	-0.013114995
185	0xbd806f68	-0.06271249
186	0x3dbb6a88	0.091511786
187	0xbc87b465	-0.016565511
188	0xbeb13a73	-0.34614906
189	0xbd88e632	-0.06684531
190	0xbefdf904	-0.49604046
191	0xbd7673c1	-0.060168985
192	0x3d045961	0.0323118
193	0xbbaef94a	-0.005339776
194	0xbd4aee0f	-0.049543437
195	0xbd556611	-0.05209929
196	0xbc6c147f	-0.0144091835
197	0x3b9b25e3	0.004734741
198	0xbd2604e8	-0.040532023
199	0xbcf9d9de	-0.030499395
200	0xbf2556a5	-0.64585334
201	0xbd76017e	-0.060060017
202	0xbed5054b	-0.416056
203	0xbbe2cded	-0.006921521
204	0x3d81faa9	0.06346638
205	0x3ca7c3e1	0.020479145
206	0xbe10cca2	-0.14140561
207	0x3ccb4146	0.024811398
208	0xbeaf3210	-0.34217882
209	0xbce5fd9c	-0.028075032
210	0x3c7efcc0	0.01556319
211	0xbf20c0e2	-0.62794316
212	0xbee78af8	-0.45223212
213	0x3cfca110	0.03083852
214	0xbd7ffc70	-0.062496603
215	0x3de73680	0.11289692
216	0xbd13d1ec	-0.03608887
217	0x3d4aecf5	0.049542386
218	0xbd959108	-0.07303053
219	0xbd0ed5d0	-0.034871876
220	0xbd60e956	-0.054910026
221	0xbdaaaff3	-0.08334341
222	0xbcecf7cb	-0.02892675
223	0xbd5b4bbc	-0.053539023
224	0x3e45447c	0.19264406
225	0xbdb2781f	-0.087143175
226	0xbd39ebfc	-0.045391068
227	0xbd15040f	-0.036380824
228	0x3c0f0b58	0.008730732
229	0xbd15a161	-0.036530856
230	0x3e629c25	0.22129877
231	0xbe578fca	-0.21050945
232	0xbd620860	-0.05518377
233	0x3d9c1907	0.07621961
234	0xbd3b8472	-0.045780607
235	0x3d4956b3	0.04915495
236	0xbc964113	-0.018341577
237	0x3ce9ba09	0.028531091
238	0xbe096810	-0.13418603
239	0xbead6f8d	-0.3387417
240	0xbc08645a	-0.008324707
241	0xbe806eeb	-0.25084624
242	0x3e6e8fc1	0.23297025
243	0xbeaa2c39	-0.33236864
244	0x3d81d571	0.06339539
245	0x3d39a4a2	0.04532302
246	0x3d685f4b	0.056731503
247	0x3d429755	0.047507603
248	0xbe190327	-0.14942609
249	0xbaded5ee	-0.0017001012
250	0xbc927812	-0.01787952
251	0xbd808290	-0.06274903
252	0xbd3c8637	-0.046026435
253	0xbe8c7c08	-0.27438378
254	0x3d2606c4	0.040533796
255	0xbe5b465b	-0.21413557

fc3.bias f4 [25]
0	0x3d971a25	0.073780335
1	0xbf347f89	-0.70507103
2	0x3f1145ad	0.5674694
3	0x3ebdbb7e	0.37057108
4	0xbe08f692	-0.13375309
5	0xbb4260b8	-0.00296597
6	0xbf5dc37e	-0.8662642
7	0x3f1ee607	0.62069744
8	0x3e966cb2	0.29379803
9	0x3d8b4a0e	0.06801234
10	0x3eb31f61	0.34984878
11	0xbdb7824e	-0.089604005
12	0x3e6f1f91	0.23351885
13	0xbe669f04	-0.22521597
14	0xbe920458	-0.2851894
15	0xbce6806d	-0.02813741
16	0xbe7ffe48	-0.24999344
17	0x3e6d9e43	0.23204903
18	0xbe88f394	-0.26748335
19	0xbe146dfa	-0.14495078
20	0xbe90a991	-0.2825437
21	0xbceabfe1	-0.028655948
22	0xbe975933	-0.2956024
23	0xbe97d3c1	-0.29653743
24	0x3ec3d037	0.38244793
